Benchmark.pth (torch, 5668 bytes, 1 tensors)

fc.weight f4 [1, 1024]
0.78468555 0.5775829 -0.7445253 0.895436 -0.5781779 -2.416734 0.42937165 1.7005534
1.0313728 0.8019162 -1.4566269 -0.34714562 0.6790163 -1.1593379 -1.054818 0.18303853
0.41832274 0.286334 -3.83832 -1.2855854 0.15212817 2.785455 -0.82935977 -0.66407293
0.0011109584 -0.6926411 0.28409827 2.3182535 0.8115699 -1.9588956 -1.1906877 0.5132498
-0.7862274 0.1280589 0.35943753 -0.9773261 0.23830898 1.0654308 -2.1617184 -0.17892799
-0.18078288 0.9861991 -0.87196624 1.189009 2.1090157 0.36149392 1.376415 -0.49584824
1.1923473 0.7579451 -3.2805595 -0.7733943 -1.3537859 -0.5572785 -3.5105357 -0.33529016
-0.5731855 -0.014357519 0.011665961 -0.78704727 0.015883874 -0.08329248 3.189585 1.2499427
1.4521189 -2.6845326 -0.38133496 0.44928738 -2.2197266 1.4993838 2.1079967 -0.5800604
0.031072259 -0.28777665 1.8692151 0.96848124 -0.0858935 0.37118527 0.5897083 -0.4408116
0.76400536 -0.8268959 2.5726123 -1.8788332 1.6340953 0.122608535 0.13061357 -0.17265971
-1.3282071 2.2450123 -0.28502226 -1.519383 1.7371285 -0.1998127 0.15313807 -2.5328875
1.7849909 1.9526916 -1.6565789 -0.1518494 2.0667484 -0.52948606 -4.0348973 1.055219
-2.532394 2.5963666 0.33397436 2.4520113 1.6113899 -1.032899 -1.36054 -1.0704855
1.8538626 -0.53196347 1.1625472 -1.313715 -1.6019198 -0.77046674 1.4634635 0.17244469
-3.8243446 0.5397848 -0.30959997 1.1347432 -0.42742038 -0.9618696 -0.26460847 1.2169658
1.4439164 1.0995803 0.77074933 -0.0031527642 -0.11059879 2.3855555 1.7841126 -1.6019676
1.6304533 -0.30949408 -1.6473693 -0.6546919 -0.22247565 -0.9777254 -1.6109535 -1.5998833
-0.106876045 -0.14916123 1.7093112 -1.0101893 -0.46173444 -1.3269533 1.7794746 0.590644
-2.1747851 -3.0090759 -0.5496367 -2.9627237 0.5999913 -1.8050497 -0.79732025 1.6023073
0.8822938 0.0026951178 -0.8612541 -0.5889835 -0.23204339 -1.7077456 1.1110402 2.5816631
-2.0117607 1.341699 -1.1456549 0.10270751 -0.5302408 0.07084913 -0.83868116 0.54626954
1.1663184 -0.7999037 0.15576649 -3.157006 0.22530188 -1.0989926 -0.6448639 -1.3628194
3.0261016 -0.9897108 -0.017440917 2.5470614 2.227074 2.0072494 1.3566782 -0.74407476
0.14805518 -2.2566166 1.1417527 -1.4257342 0.4608965 -0.93689114 0.93008894 -1.4144372
1.0985614 2.02535 -2.0956597 0.03670492 1.2194906 1.4111468 1.8932365 0.3650147
0.23215121 -2.823716 0.08619854 1.1082501 0.12170193 -1.1262842 0.26143384 1.0763313
0.86832064 -2.0026124 -0.22170985 -0.29611802 -1.0856634 -0.8928387 -0.06748365 -1.9614971
-1.1911831 1.0243086 0.023361603 -0.9145219 -1.3156464 -0.28459397 -2.0646663 1.3891373
-0.18199462 -1.3039435 -2.092307 -1.3614212 2.0312345 0.28146222 -3.2632668 0.108616725
1.7356722 3.429291 0.08181661 0.57700217 0.18052813 2.213209 0.7118579 2.2112317
1.396791 -1.4330963 -0.025312532 -1.4904014 0.12665887 0.64266944 -0.41429493 -3.3444216
00000000: 27e1 483f 79dc 133f 3699 3ebf 4b3b 653f
00000010: 7803 14bf c5ab 1ac0 9ad6 db3e bcab d93f
00000020: 0604 843f 614a 4d3f c072 babf 12bd b1be
00000030: 03d4 2d3f 2f65 94bf 4704 87bf 746e 3b3e
00000040: 662e d63e 5f9a 923e 09a7 75c0 108e a4bf
00000050: 7dc7 1b3e e544 3240 ec50 54bf af00 2abf
00000060: 949d 913a ed50 31bf 5475 913e 445e 1440
00000070: 0cc3 4f3f 17bd fabf 7468 98bf 5764 033f
00000080: 3346 49bf df21 033e 3208 b83e 0b32 7abf
00000090: 4507 743e 0960 883f 9859 0ac0 e638 37be
000000a0: 261f 39be 8b77 7c3f 2e39 5fbf 7231 983f
000000b0: 1dfa 0640 bb15 b93e 5e2e b03f d2df fdbe
000000c0: d69e 983f b108 423f b0f4 51c0 2bfd 45bf
000000d0: db48 adbf cea9 0ebf 9eac 60c0 27ab abbe
000000e0: 49bc 12bf cd3b 6bbc 9622 3f3c ee7b 49bf
000000f0: e61e 823c 3f95 aabd 2922 4c40 1ffe 9f3f
00000100: 08df b93f 62cf 2bc0 563e c3be ff08 e63e
00000110: 0010 0ec0 cfeb bf3f 6be9 0640 d77e 14bf
00000120: 408b fe3c 7657 93be 7142 ef3f 63ee 773f
00000130: eee8 afbd ff0b be3e 20f7 163f 0fb2 e1be
00000140: db95 433f 73af 53bf aea5 2440 9b7d f0bf
00000150: 092a d13f 2f1a fb3d 90bf 053e b5cd 30be
00000160: b102 aabf 48ae 0f40 70ee 91be 247b c2bf
00000170: 3a5a de3f b39b 4cbe 3ad0 1c3e d41a 22c0
00000180: 957a e43f ccf1 f93f c70a d4bf 697e 1bbe
00000190: 9b45 0440 668c 07bf e11d 81c0 6b11 873f
000001a0: be12 22c0 df2a 2640 b0fe aa3e c1ed 1c40
000001b0: 0642 ce3f 0936 84bf 2d26 aebf ab05 89bf
000001c0: 5f4b ed3f c22e 08bf 59ce 943f d027 a8bf
000001d0: b50b cdbf 4f3d 45bf c652 bb3f 5795 303e
000001e0: 10c2 74c0 562f 0a3f e383 9ebe 443f 913f
000001f0: d8d6 dabe 163d 76bf c37a 87be 89c5 9b3f
00000200: 41d2 b83f 0cbf 8c3f d44f 453f 9b9e 4ebb
00000210: 9e81 e2bd f1ac 1840 cd5d e43f 460d cdbf
00000220: b2b2 d03f 0276 9ebe ffdc d2bf e399 27bf
00000230: a8d0 63be 364c 7abf b933 cebf fac8 ccbf
00000240: d4e1 dabd b9bd 18be b6ca da3f e24d 81bf
00000250: 7568 ecbe 9bd9 a9bf d3c5 e33f 7234 173f
00000260: ae2f 0bc0 b394 40c0 feb4 0cbf 449d 3dc0
00000270: 0899 193f de0b e7bf 2e1d 4cbf 6818 cd3f
00000280: 02de 613f 93a0 303b 267b 5cbf 9fc7 16bf
00000290: c89c 6dbe 6897 dabf 9136 8e3f f839 2540
000002a0: b0c0 00c0 cbbc ab3f d2a4 92bf 5158 d23d
000002b0: dcbd 07bf 5919 913d cfb3 56bf 52d8 0b3f
000002c0: ec49 953f 7dc6 4cbf 4081 1f3e 630c 4ac0
000002d0: 89b5 663e caab 8cbf cd15 25bf de70 aebf
000002e0: a6ab 4140 b05d 7dbf 41e0 8ebc 0e03 2340
000002f0: 6188 0e40 c676 0040 a2a7 ad3f af7b 3ebf
00000300: c79b 173e 686c 10c0 f424 923f 757e b6bf
00000310: a0fa eb3e 19d8 6fbf 4f1a 6e3f 470c b5bf
00000320: a99d 8c3f 569f 0140 4a1f 06c0 e657 163d
00000330: 4518 9c3f 75a0 b43f 9355 f23f 35e3 ba3e
00000340: 0cb9 6d3e c3b7 34c0 dc88 b03d 24db 8d3f
00000350: dd3e f93d 152a 90bf a8da 853e 39c5 893f
00000360: 434a 5e3f cd2a 00c0 e807 63be c89c 97be
00000370: 05f7 8abf 1491 64bf de34 8abd 5612 fbbf
00000380: b078 98bf 8b1c 833f d560 bf3c 1b1e 6abf
00000390: 1a67 a8bf 4db6 91be 7e23 04c0 40cf b13f
000003a0: cc5c 3abe 9fe7 a6bf 5ce8 05c0 0d43 aebf
000003b0: bfff 0140 d11b 903e 5dd9 50c0 7272 de3d
000003c0: 822a de3f 8179 5b40 788f a73d 6ab6 133f
000003d0: 5edc 383e 37a5 0d40 523c 363f d284 0d40
000003e0: 0cca b23f b36f b7bf 3a5c cfbc 79c5 bebf
000003f0: ddb2 013e fc85 243f 771e d4be 010b 56c0
